…
2022-11-26 18:52:34.070736: I tensorflow/stream_executor/cuda/cuda_diagnostics.cc:176] hostname: DESKTOP-C4CN5G3
2022-11-26 18:52:34.076872: I tensorflow/core/platform/cpu_feature_guard.cc:151] This TensorFlow binary is optimized with oneAPI Deep Neural Network Library (oneDNN) to use the following CPU instructions in performance-critical operations:  AVX AVX2
To enable them in other operations, rebuild TensorFlow with the appropriate compiler flags.
Model: "sequential"
_________________________________________________________________
 Layer (type)                Output Shape              Param #   
=================================================================
 conv1d (Conv1D)             (None, 1067, 32)          192       
                                                                 
 batch_normalization (BatchN  (None, 1067, 32)         128       
 ormalization)                                                   
                                                                 
 max_pooling1d (MaxPooling1D  (None, 532, 32)          0         
 )                                                               
                                                                 
 conv1d_1 (Conv1D)           (None, 528, 64)           10304     
                                                                 
 batch_normalization_1 (Batc  (None, 528, 64)          256       
 hNormalization)                                                 
                                                                 
 activation (Activation)     (None, 528, 64)           0         
                                                                 
 max_pooling1d_1 (MaxPooling  (None, 263, 64)          0         
 1D)                                                             
                                                                 
 dropout (Dropout)           (None, 263, 64)           0         
                                                                 
 flatten (Flatten)           (None, 16832)             0         
                                                                 
 dense (Dense)               (None, 32)                538656    
                                                                 
 dense_1 (Dense)             (None, 1)                 33        
                                                                 
=================================================================
Total params: 549,569
Trainable params: 549,377
Non-trainable params: 192
_________________________________________________________________
Epoch 1/2
40/40 [==============================] - 36s 884ms/step - loss: 0.5649 - accuracy: 0.8165
Epoch 2/2
…
