…
2022-11-17 01:40:46.466764: I tensorflow/stream_executor/cuda/cuda_diagnostics.cc:176] hostname: DESKTOP-C4CN5G3
2022-11-17 01:40:46.475938: I tensorflow/core/platform/cpu_feature_guard.cc:151] This TensorFlow binary is optimized with oneAPI Deep Neural Network Library (oneDNN) to use the following CPU instructions in performance-critical operations:  AVX AVX2
To enable them in other operations, rebuild TensorFlow with the appropriate compiler flags.
Model: "sequential"
_________________________________________________________________
 Layer (type)                Output Shape              Param #   
=================================================================
 conv2d (Conv2D)             (None, 66, 57, 64)        7808      
                                                                 
 batch_normalization (BatchN  (None, 66, 57, 64)       256       
 ormalization)                                                   
                                                                 
 max_pooling2d (MaxPooling2D  (None, 31, 27, 64)       0         
 )                                                               
                                                                 
 spatial_dropout2d (SpatialD  (None, 31, 27, 64)       0         
 ropout2D)                                                       
                                                                 
 flatten (Flatten)           (None, 53568)             0         
                                                                 
 dense (Dense)               (None, 32)                1714208   
                                                                 
 dense_1 (Dense)             (None, 1)                 33        
                                                                 
=================================================================
Total params: 1,722,305
Trainable params: 1,722,177
Non-trainable params: 128
_________________________________________________________________
Epoch 1/2
40/40 [==============================] - 1745s 43s/step - loss: 1.5263 - accuracy: 0.8769
Epoch 2/2
…
standard deviation 23.08183540924437
median width 21.0
number of upper outliers removed 30709
max width excluding upper outliers 48
height array size 436212
min height 0
max height 1998
mean height 9.310055661008867
standard deviation 23.73485698618279
median height 5.0
number of upper outliers removed 12985
max height excluding upper outliers 33
reading data... done.
Model: "sequential"
_________________________________________________________________
 Layer (type)                Output Shape              Param #   
=================================================================
 conv2d (Conv2D)             (None, 68, 82, 64)        3200      
                                                                 
 batch_normalization (BatchN  (None, 68, 82, 64)       256       
 ormalization)                                                   
                                                                 
 max_pooling2d (MaxPooling2D  (None, 34, 41, 64)       0         
 )                                                               
                                                                 
 conv2d_1 (Conv2D)           (None, 28, 35, 128)       401536    
                                                                 
 batch_normalization_1 (Batc  (None, 28, 35, 128)      512       
 hNormalization)                                                 
                                                                 
 max_pooling2d_1 (MaxPooling  (None, 14, 17, 128)      0         
 2D)                                                             
                                                                 
 spatial_dropout2d (SpatialD  (None, 14, 17, 128)      0         
 ropout2D)                                                       
                                                                 
 flatten (Flatten)           (None, 30464)             0         
                                                                 
 dense (Dense)               (None, 32)                974880    
                                                                 
 dense_1 (Dense)             (None, 1)                 33        
                                                                 
=================================================================
Total params: 1,380,417
Trainable params: 1,380,033
Non-trainable params: 384
_________________________________________________________________
Epoch 1/2
27/27 [==============================] - 585s 10s/step - loss: 0.6487 - accuracy: 0.8451
Epoch 2/2
…
