…
2022-11-16 22:25:41.257711: I tensorflow/stream_executor/cuda/cuda_diagnostics.cc:176] hostname: DESKTOP-C4CN5G3
2022-11-16 22:25:41.282722: I tensorflow/core/platform/cpu_feature_guard.cc:151] This TensorFlow binary is optimized with oneAPI Deep Neural Network Library (oneDNN) to use the following CPU instructions in performance-critical operations:  AVX AVX2
To enable them in other operations, rebuild TensorFlow with the appropriate compiler flags.
Model: "sequential"
_________________________________________________________________
 Layer (type)                Output Shape              Param #   
=================================================================
 conv1d (Conv1D)             (None, 1067, 32)          192       
                                                                 
 batch_normalization (BatchN  (None, 1067, 32)         128       
 ormalization)                                                   
                                                                 
 max_pooling1d (MaxPooling1D  (None, 532, 32)          0         
 )                                                               
                                                                 
 conv1d_1 (Conv1D)           (None, 528, 64)           10304     
                                                                 
 batch_normalization_1 (Batc  (None, 528, 64)          256       
 hNormalization)                                                 
                                                                 
 activation (Activation)     (None, 528, 64)           0         
                                                                 
 max_pooling1d_1 (MaxPooling  (None, 263, 64)          0         
 1D)                                                             
                                                                 
 dropout (Dropout)           (None, 263, 64)           0         
                                                                 
 flatten (Flatten)           (None, 16832)             0         
                                                                 
 dense (Dense)               (None, 32)                538656    
                                                                 
 dense_1 (Dense)             (None, 1)                 33        
                                                                 
=================================================================
Total params: 549,569
Trainable params: 549,377
Non-trainable params: 192
_________________________________________________________________
Epoch 1/2
40/40 [==============================] - 41s 953ms/step - loss: 0.5454 - accuracy: 0.8149
Epoch 2/2
…
max width excluding upper outliers 1032
width array size 487484
min width 1
max width 221890
mean width 104.64103642375954
standard deviation 656.9850991980804
median width 51.0
number of upper outliers removed 4452
max width excluding upper outliers 761
train_data: 8658
train_labels: 8658
eval_data: 147293
eval_labels: 147293
reading data... done.
Model: "sequential"
_________________________________________________________________
 Layer (type)                Output Shape              Param #   
=================================================================
 conv1d (Conv1D)             (None, 1028, 32)          192       
                                                                 
 batch_normalization (BatchN  (None, 1028, 32)         128       
 ormalization)                                                   
                                                                 
 max_pooling1d (MaxPooling1D  (None, 513, 32)          0         
 )                                                               
                                                                 
 dropout (Dropout)           (None, 513, 32)           0         
                                                                 
 flatten (Flatten)           (None, 16416)             0         
                                                                 
 dense (Dense)               (None, 32)                525344    
                                                                 
 dense_1 (Dense)             (None, 1)                 33        
                                                                 
=================================================================
Total params: 525,697
Trainable params: 525,633
Non-trainable params: 64
_________________________________________________________________
Epoch 1/2
34/34 [==============================] - 18s 501ms/step - loss: 1.3501 - accuracy: 0.7056
Epoch 2/2
34/34 [==============================] - 15s 450ms/step - loss: 0.6495 - accuracy: 0.7343
…
max width excluding upper outliers 8456
width array size 171300
min width 4
max width 393835
mean width 548.7671978984238
standard deviation 2527.7064719740188
median width 174.0
number of upper outliers removed 4401
max width excluding upper outliers 3075
train_data: 2520
train_labels: 2520
eval_data: 50528
eval_labels: 50528
reading data... done.
Model: "sequential"
_________________________________________________________________
 Layer (type)                Output Shape              Param #   
=================================================================
 conv1d (Conv1D)             (None, 8446, 32)          384       
                                                                 
 batch_normalization (BatchN  (None, 8446, 32)         128       
 ormalization)                                                   
                                                                 
 max_pooling1d (MaxPooling1D  (None, 4223, 32)         0         
 )                                                               
                                                                 
 conv1d_1 (Conv1D)           (None, 4213, 64)          22592     
                                                                 
 batch_normalization_1 (Batc  (None, 4213, 64)         256       
 hNormalization)                                                 
                                                                 
 activation (Activation)     (None, 4213, 64)          0         
                                                                 
 max_pooling1d_1 (MaxPooling  (None, 2106, 64)         0         
 1D)                                                             
                                                                 
 dropout (Dropout)           (None, 2106, 64)          0         
                                                                 
 flatten (Flatten)           (None, 134784)            0         
                                                                 
 dense (Dense)               (None, 32)                4313120   
                                                                 
 dense_1 (Dense)             (None, 1)                 33        
                                                                 
=================================================================
Total params: 4,336,513
Trainable params: 4,336,321
Non-trainable params: 192
_________________________________________________________________
Epoch 1/3
2022-11-16 22:36:35.347059: W tensorflow/core/framework/cpu_allocator_impl.cc:82] Allocation of 276758528 exceeds 10% of free system memory.
…
